fMin0.1fMax1checkpoint.pt (torch_old, 335508 bytes, 48 tensors)

conv1.weight f4 [16, 3, 3, 3]
00000000: e919 683e 2267 34bd 0b4b a1bd 2ae3 f8bc
00000010: a9b1 f93c dc56 c4bc 17ee 49bd 77d0 0d3e
00000020: 6f66 563e 00fe c2bd 2ca1 313e 17b3 f33d
00000030: 4020 be3b 5da0 703d 855e 49be 9675 febd
00000040: a13c 903d 0561 5e3e 2a6f ad3c 06d4 513e
00000050: 831e 233d f32c 513d 2e0f 343c e5c3 01bd
00000060: 223d b93c db68 65bb 09c3 e739 f54d b03d
00000070: 84ab 50bd 256c 3bbd c5c1 eabd 1f8b 23be
00000080: d38c a93e 926e 0abe 6637 4dbe 0cf4 9ebd
00000090: 60b0 963d d3a1 6ebd 5a18 8c3d 599f 403c
000000a0: 664b 63bd e25c b93a 9c6b 1ebe bc40 2ebd
000000b0: b538 003d 5707 0cbc af2f 903d 953e 91bd
000000c0: e18d 993d 4edc 5d3d 6679 0dbc c1b9 30be
000000d0: 0ecd 14be c530 07bd aad9 b0bd 6914 1d3d
000000e0: 0d45 ce3c 3219 11bc fec6 d03d fde7 acbd
000000f0: a241 84bd 5fb3 dc3d 422c e5bc e27a 13be
00000100: 5fb9 83be 919b de3c 6f46 183e 6ebd a6bd
00000110: cbdb 063e c85a 803d 5e7f 353c e303 d33d
00000120: c72b 2ebe 29dd aabd 4063 19be 819b 2a3e
00000130: e9b2 2b3e 0059 a5bc 601b 3d3e 61a3 a3bd
00000140: 620c 8fbc 83db 403d 6edf 10bb 9c64 8c3e
00000150: c78b 21bd 65a9 03be 51aa 16be 77ab c23d
00000160: 4722 cabd 8fd7 3a3b 74e9 25bd df8a 1b3e
00000170: 5d28 6d3d 0ab7 6b3d 1af5 07be 8e55 03be
00000180: e094 a3bc dfe7 f539 e169 503d e1da 5d3e
00000190: 8682 4bbd 7386 803e ef13 6dbd 1031 ab3d
000001a0: 8b71 48be 66ec fbb8 56fd 96bd 98be 2fbe
000001b0: 3bd5 a4bd 043e 2e3d 0330 74bd 64e7 13be
000001c0: 5cb4 50bc 130f 19be 6ffa fa3d 6784 153c
000001d0: 1543 34be c657 58be 2707 2dbe 2ee9 29be
000001e0: de75 1d3d 843b 99be 341d f2bd e034 4abd
000001f0: f683 afbd c3b8 8dbe 00e3 18bc 91da d6bd
00000200: 5de7 0e3d f1fb e0bd 5f86 2f3e 7ca9 5cbe
00000210: d3f8 c3bc 716d 273d 00eb 8fbd 6efb 67be
00000220: 8879 843c 6427 c33d f339 9abd 4197 773d
00000230: 1895 4b3d 0c76 38bc 631c 0c3d 4777 c23c
00000240: dbce ebbd 2477 25bd 7a87 a8bb fb82 b73d
00000250: f301 63bd 339c 3dbd ba62 b33d 213f a4bd
00000260: 98fa 103e 19c2 c5bd 28a8 a8bc b24e debd
00000270: bc82 943e 4326 4f3e a426 74be 74ff 21bd
00000280: b66c d93b 91ed a1bc 5884 093d 69d3 5ebe
00000290: 2251 403d 2915 d33c 9fb2 9d3e 7bb6 ed3d
000002a0: 8bd6 bc3d 7a89 523e 03ee a2bd d559 943d
000002b0: b75d ddbb e7ac a8bd 2e69 c4bc 8f45 063c
000002c0: 6ac6 d83d fc09 dfbd d375 6bbc 436b ed3d
000002d0: 46ed 9d3d c423 393e 3a83 4c3e a3a0 37be
000002e0: 210f 133e 702b e9bd 73e0 e5bc 2c51 21be
000002f0: 441a 843e c1da 54be 2e96 8ebd 4c18 85be
00000300: 1378 233c 2674 b93e 47d9 18be 8f77 3ebd
00000310: 19d0 5dbd f2b3 323e 2ead 833d 79ed 4b3e
00000320: 39d1 0a3d 9521 193d 3af3 cb3c 902a 033c
00000330: 74b3 cbbd 03d4 28be ccbb ecbd e1f0 593c
00000340: 4e6a 0a3d b908 2cbd 8f05 33bd 241e 15be
00000350: 4a5c ebbc 3932 8e3e 6572 08be 4017 03be
00000360: ae90 133d b8e0 eabd a6e0 47be 0289 3c3e
00000370: eb5e 933c fac5 263e b42c 66bd fbef 6abd
00000380: 3fd0 0f3e ef76 db3d 90e7 3a3e e7ca bb3d
00000390: 11f7 c6bd bd32 0ebe 1ec6 62bc f794 e83d
000003a0: 4519 d5bd 6f8a 1cbc 68f8 3d3e 3c3d 173d
000003b0: 45fc 2cbe a87a 3dbe 952a 333d fb4e b9bd
000003c0: 60cc 5f3c 8540 013e a378 fc3d 3f6f 40be
000003d0: 419f 193e 45df 8c3e 5be8 a0be d0ea 953b
000003e0: 02e0 31be 8dd0 05bd 2bec 173e 143f f93d
000003f0: 5d0d 573d 91dd 913d 71a0 813c bcc6 d0bc
0.22666134 -0.044043668 -0.078756414 -0.030381758 0.030480223 -0.023967199 -0.049299326 0.13849054
0.20937513 -0.09521103 0.17346638 0.11899393 0.0058021843 0.058746684 -0.19664963 -0.124247715
0.07042814 0.21716698 0.021171171 0.20491037 0.03982402 0.051068258 0.010989947 -0.03168096
0.022612158 -0.0035005126 0.00044205066 0.08608619 -0.05094482 -0.04575743 -0.1146274 -0.15971039
0.33115253 -0.13518742 -0.20040664 -0.07761392 0.073578596 -0.058259796 0.06840582 0.011756741
-0.055491827 0.0014142061 -0.15470737 -0.042542204 0.03130408 -0.008546672 0.07040345 -0.07092015
0.074977644 0.054165177 -0.008634901 -0.1725836 -0.14531347 -0.033005495 -0.08635266 0.038349543
0.02517941 -0.008856105 0.10194205 -0.08442686 -0.06457831 0.107764 -0.027975205 -0.14402345
-0.25727364 0.02717379 0.14870618 -0.081415996 0.13169782 0.06267315 0.01107773 0.10303476
-0.17008887 -0.08342964 -0.14979267 0.16660883 0.16767468 -0.02018404 0.18467474 -0.079901464
-0.01746196 0.047084343 -0.002210583 0.2742051 -0.039439943 -0.12857588 -0.14713408 0.095053606
-0.09869819 0.002850983 -0.04050584 0.15189694 0.05789982 0.057547607 -0.13277093 -0.12825605
-0.01996845 0.000469028 0.050882224 0.21665527 -0.049685024 0.25102577 -0.05788034 0.08358967
-0.19574563 -0.00012012645 -0.07372539 -0.1716255 -0.08048483 0.04253961 -0.0596161 -0.14443737
-0.0127383135 -0.14947157 0.12254798 0.009125805 -0.17603715 -0.21127233 -0.1689726 -0.16592857
0.038442485 -0.2992822 -0.11821976 -0.04936683 -0.085700914 -0.27680025 -0.009331465 -0.10490907
0.034888614 -0.10985554 0.17141102 -0.21549028 -0.02392236 0.040875856 -0.070272446 -0.22654507
0.016171232 0.095289975 -0.07530584 0.06044698 0.049702734 -0.011258613 0.03420676 0.023738516
-0.11514064 -0.040396824 -0.005143103 0.089605294 -0.05542178 -0.04629154 0.08759065 -0.080198534
0.14158094 -0.09656162 -0.020587996 -0.10854854 0.29005992 0.2022944 -0.23842865 -0.03955026
0.006635274 -0.0197666 0.03357348 -0.21760334 0.046952374 0.025766926 0.3080034 0.11607071
0.09220608 0.20560256 -0.079555534 0.072436966 -0.0067555564 -0.082361035 -0.023975935 0.008195295
0.105847195 -0.10890576 -0.014371353 0.11592724 0.07711272 0.1808005 0.19971934 -0.17932372
0.1436124 -0.11385238 -0.028061127 -0.15753621 0.2580129 -0.20786573 -0.06962238 -0.259951
0.009977358 0.36221427 -0.14926635 -0.04650074 -0.054153536 0.17451456 0.06429516 0.19914807
0.033890937 0.037385542 0.024896253 0.008005753 -0.09946337 -0.16487126 -0.11559257 0.013302059
0.033792786 -0.042000506 -0.043706473 -0.14562279 -0.02873053 0.27772692 -0.13324888 -0.12801838
0.03602665 -0.11468643 -0.1951929 0.1841164 0.017989596 0.1628646 -0.056194976 -0.05735777
0.14044283 0.10716044 0.18252397 0.0916956 -0.09715093 -0.13886543 -0.01384118 0.11356538
-0.104052104 -0.0095544895 0.1855179 0.036923632 -0.16893108 -0.18503821 0.04374178 -0.090482675
0.013659567 0.12622268 0.12327697 -0.18792437 0.15002157 0.2751409 -0.31427273 0.004575111
-0.17370608 -0.032669593 0.14836185 0.12170234 0.05250298 0.071223386 0.015823575 -0.025485389

bn1.weight f4 [16]
00000000: 0fa9 533f 7943 503f bd1a a73f 4554 a33f
00000010: e418 563f 57b7 613f 04c3 603f 8fa2 673f
00000020: 8d5b 5f3f 51c2 5b3f d418 703f 8057 563f
00000030: e808 723f ebd7 673f 0e1e 6e3f 9726 613f
0.8267984 0.81352955 1.3055035 1.2760092 0.8363173 0.8817038 0.8779757 0.9048242
0.8724907 0.8584338 0.93787885 0.83727264 0.9454484 0.9056384 0.9301461 0.8794951

bn1.bias f4 [16]
00000000: 18d9 edbd d168 05be bbeb 0e3c f25f 3ebc
00000010: be15 f0bd ea96 23bd 9b48 b3bd 8d4d 87bd
00000020: 6f7c 02bd 86e7 3dbd 087b ccbc 3edc 3ebe
00000030: 0f07 58bd f758 a9bd 8ad1 dfbd b42e b1bd
-0.11613673 -0.13028266 0.008723195 -0.011619555 -0.11722897 -0.039938845 -0.08754083 -0.066065885
-0.03185695 -0.046363376 -0.02496101 -0.18638703 -0.052741107 -0.08268922 -0.10928638 -0.08651486

bn1.running_mean f4 [16]
00000000: de4d c33e 74b8 98be f6da d639 9cf0 4139
00000010: 844d 5bbf 5b81 07bd 60d8 cc3e 6ccf 3cbe
00000020: f38c 0c3e cd2b 74bd addc eb3e 2216 9abe
00000030: 1c9f 523e 723b 943e 7be4 dbbd 0fd8 ba3e
0.38145345 -0.29828227 0.000409804 0.00018495548 -0.85665154 -0.033082347 0.4000883 -0.184385
0.13725643 -0.059612084 0.460668 -0.3009501 0.20568508 0.28951603 -0.107369386 0.36492965

bn1.running_var f4 [16]
00000000: b698 613d 0a05 153d d671 2e3b 81db 593b
00000010: 6061 943e 5a2f cc3a 8d7f 793d 6e55 593c
00000020: 4ed1 fa3b c327 423b 9cb5 a13d a61b 193d
00000030: d9f8 c23c 088f 073d 4884 b13b c761 5c3d
0.055077277 0.03638176 0.0026618144 0.0033242407 0.2898054 0.0015578077 0.060912658 0.013264997
0.0076543456 0.002962575 0.07895967 0.037379883 0.0238003 0.03309539 0.0054173805 0.053804185

layer1.0.conv1.weight f4 [16, 16, 3, 3]
00000000: 8748 18be 8d3d 00be 1e1b b73d 4a3c 3bbe
00000010: 6425 af3c 69fe 6abd 6669 813d e9fa d33d
00000020: e4f3 353c 7fa8 9fbc bbd5 a73d a6e8 f53c
00000030: 8183 5cbd 6fed 743d 1f46 87bd a80d 8a3d
00000040: d2c1 f13d 9133 adbd 4c63 903e ffe0 923d
00000050: 4318 6f3e f5ef 42be 896e 7bbe 1f26 2abe
00000060: c89f 99bb 1feb 823e 6f24 893d 59a8 04be
00000070: fb4c 993d a8a9 9e3e 7b0d 4fbe a43b 35be
00000080: 837b 4bbe 1c3a 173e 3a98 263d e7d4 3ebe
00000090: b212 923d c222 15bd b971 2a3e cc88 613d
000000a0: 5c77 84bd c282 41bd 26f8 8a3d 3baf a63c
000000b0: 3201 99bd e8fa 473d 38e9 98bd 8bd6 e93d
000000c0: 829f 6ebd e855 1f3e e1a9 87bd 92c0 e63d
000000d0: 45bf 23bd 1078 bdbd f6b0 08bc 7169 273e
000000e0: 6f2f bfbc 123a 24be 3ef1 ecbd 6142 fa3d
000000f0: 2496 1e3d c8d3 9fbb 2397 4ebd f6dc 823e
00000100: 76b8 84bc 82a6 053e d3f4 1bbc bcd6 b7bd
00000110: b8db 30be 0c3d c53d afee b73b 71ab a9bd
00000120: c516 f8bd ad47 1a3e 36eb 7e3d 723c 023d
00000130: 0e63 3cbd ed22 18be dfb2 b1bd 7817 473d
00000140: d206 893b d7ec 80be 4e6c 7abe 68c3 cdbc
00000150: cddc 873b e611 593c f692 a13c 64a3 86bd
00000160: 9350 873d 10ee d8bd 1edd 743e c5a2 febc
00000170: b28b 5cbc c6a5 11bd a465 143e 3a83 25be
00000180: f91d a6bc f310 383d 4827 493d a235 a73b
00000190: 022e 25be 1e94 9b3d 14ba 81bd bfc4 2e3d
000001a0: d4a4 9f3e 4d33 f63c 3f9b 4abd 6267 9abd
000001b0: 682b 26be 7ca2 8fbe 38ab 82bd 21d5 38bd
000001c0: 18d0 cb3d dd2d a9bd adaa f03d fd62 a2bc
000001d0: d252 b63b 21b4 0d3d d6ac 91bc bffb f5bc
000001e0: cac0 e9bd 4a29 c8bc dd71 5dbe 9ab2 403e
000001f0: 5642 153e 6304 613e e371 9b3d 3ea7 42be
00000200: da72 7e3d a00f 143d 8258 8abd 70b1 e23d
00000210: b145 5bbe ad62 b23d 1865 723d c465 523d
00000220: 1422 f43d ac63 a53d 7379 f8bd 9f32 063d
00000230: 77f9 80bd 9b6f 71bc 3679 523d 0499 823e
00000240: 379c e73c f334 833b 2dbe 5abe fd31 98bd
00000250: 52c4 163e 9e72 703c a695 6d3d 5ee0 a83d
00000260: 2d69 4a3c 4a1e a13a 1593 ac3c 385e 243c
00000270: 3011 a2ba ae23 39be 2070 663d e6a9 95bc
00000280: cf76 46be a580 1cbd a73c 2c3e e567 9c3c
00000290: 93ef 60bd a08d 2a3d 8419 89bd 35a9 143e
000002a0: ff7c 033d 3701 68bd 8865 8f3c 87a2 1a3e
000002b0: 01aa 963c d707 ef3d bd9b 9b3c fafd 1cbe
000002c0: 6c4e 923c 7dd6 993d b9a5 943d 208b 9a3d
000002d0: d006 0fbe bb22 b53d eb51 0dbd a472 2cbe
000002e0: 27c7 d13c 784d 18be 3e52 b7bd a15e 8cbd
000002f0: 9ab2 23be 2a2a 92bd e6fd 18bd a123 763d
00000300: 07b3 e0bb 1179 083e 4e32 7b3c 995e f0bd
00000310: 9310 bc3d 0972 a43d 4d1d bb3c 2c39 3c3c
00000320: 1947 dc3b 4e1f df3d aed5 19be 43f0 dbbd
00000330: 9aa4 3bbd d79f abbd efe8 b1bd 9b76 17be
00000340: 2e60 2dbe 2ed0 2f3e 5ef4 31be 6c08 62bd
00000350: 064e 1e3d 5a32 3abe 749e 8a3e 6166 88bd
00000360: 5886 d63c 70f4 07bd eef8 633e 4017 eb3b
00000370: 0e6e 33bd b1d1 1c3c 99b9 88bd 9128 0ebe
00000380: f5c6 0c3e 9f54 38bc 8652 653e 6bd9 6a3d
00000390: 2e19 57be 2f49 983d 12c5 283e 8588 a0bd
000003a0: d6dd 3b3e 7c53 f03d 2d7c 48bd 1da2 bf3c
000003b0: d78c b03d 9fea bdbd 6d45 563c 5835 a1bd
000003c0: b96a ae3d 5345 9abd b0d8 f3bd 8106 26be
000003d0: 7b95 9dbd dd44 09be 1f78 203d 22a6 12be
000003e0: b32b 9abd 08d3 c43d 76d3 9abd e61f 1fbe
000003f0: 4159 ad3d a643 d73d 03ca 7e3e 733b ebbc
-0.14871417 -0.1252348 0.08940719 -0.18284717 0.021380134 -0.05737153 0.06318931 0.10350592
0.011105511 -0.019489525 0.08195063 0.030018162 -0.05383635 0.059796747 -0.066051714 0.06740886
0.118045464 -0.08457101 0.28200758 0.07171821 0.23349099 -0.19036849 -0.24553885 -0.16616105
-0.004688237 0.25570008 0.06696402 -0.12954845 0.07485386 0.30988812 -0.20219986 -0.17698532
-0.19871335 0.1476826 0.04067252 -0.18635903 0.07132472 -0.0364101 0.16644944 0.0550621
-0.064680785 -0.04724384 0.06785612 0.020347228 -0.07470931 0.048823267 -0.07466358 0.11417874
-0.058257587 0.15560114 -0.06624199 0.112671986 -0.03997733 -0.09251416 -0.008342972 0.16348816
-0.023338048 -0.16037777 -0.11569451 0.12219692 0.038717404 -0.004877541 -0.050437104 0.25559205
-0.01620124 0.13051799 -0.00951882 -0.08976504 -0.17271316 0.096307844 0.00561317 -0.08284653
-0.12113718 0.15066405 0.062236033 0.031795926 -0.045992903 -0.14857073 -0.08676695 0.048606366
0.0041817212 -0.25180694 -0.24455377 -0.025117591 0.0041461946 0.013248896 0.019723397 -0.06574133
0.06607165 -0.10592282 0.23912475 -0.031083474 -0.01346104 -0.035558484 0.14491898 -0.1616334
-0.020277964 0.04493804 0.049109727 0.005102829 -0.16130832 0.075966105 -0.0633432 0.0426681
0.3118044 0.030053759 -0.04946446 -0.0753925 -0.16227496 -0.28053653 -0.06380314 -0.04512513
0.099518 -0.08260701 0.11751304 -0.019822592 0.005564072 0.034595612 -0.01778261 -0.030027268
-0.11413725 -0.02443375 -0.21625467 0.18818131 0.14576086 0.2197433 0.075900815 -0.1900911
0.06212125 0.036147714 -0.06755163 0.11069 -0.21413304 0.08710227 0.05917844 0.051366583
0.119205624 0.080756515 -0.121325396 0.03276312 -0.06297582 -0.0147360815 0.051385127 0.25507367
0.028272731 0.004004115 -0.21361609 -0.074314095 0.14723328 0.014675764 0.058004044 0.0824592
0.012354177 0.0012292352 0.021066228 0.010032229 -0.0012364741 -0.18080017 0.056259274 -0.01826949
-0.1938126 -0.038208622 0.16820012 0.01909251 -0.054915976 0.04163897 -0.0669432 0.14517672
0.032101627 -0.056641784 0.017504469 0.15101062 0.018391611 0.11671417 0.01899516 -0.1533126
0.01785966 0.075116135 0.072581716 0.07546067 -0.13967443 0.08844515 -0.03450195 -0.16840607
0.025607659 -0.14873302 -0.08951233 -0.068539865 -0.159861 -0.071369484 -0.03735151 0.060092572
-0.006857279 0.13327433 0.015331818 -0.11736793 0.09182849 0.08029563 0.02284112 0.01148824
0.0067223427 0.10894643 -0.15022919 -0.10739186 -0.045811273 -0.083800964 -0.08687007 -0.14791338
-0.16931221 0.17169258 -0.17378375 -0.055183813 0.038648628 -0.1818327 0.27074015 -0.06660152
0.026187107 -0.0331921 0.22262928 0.0071744025 -0.04380613 0.009571479 -0.06676025 -0.13882662
0.13747771 -0.011250644 0.22394761 0.057336252 -0.21005699 0.07435834 0.16481426 -0.07838539
0.18346342 0.117346734 -0.04894655 0.023392731 0.08620613 -0.09273266 0.013078076 -0.07871503
0.085164495 -0.07532754 -0.11906564 -0.16213419 -0.07694527 -0.13405176 0.039177056 -0.14321187
-0.07527866 0.096105635 -0.07559864 -0.15539512 0.084642895 0.1051095 0.24881749 -0.028714871

layer1.0.bn1.weight f4 [16]
00000000: 177e 7a3f 0308 6c3f ff0f 8e3f b3e8 8c3f
00000010: 1332 863f 9ea0 493f 9b42 af3f 48fd 933f
00000020: ead8 703f 2126 4c3f a605 5a3f 8ffe 673f
00000030: fa9f 543f 4626 a33f f23c 5c3f 5cf4 7b3f
0.9784865 0.92199725 1.1098632 1.1008514 1.0484031 0.7876071 1.3692201 1.156167
0.94080985 0.7974568 0.8516487 0.906228 0.83056605 1.2746055 0.86030495 0.9841974

layer1.0.bn1.bias f4 [16]
00000000: cf03 083e 6cc3 f1bc 67c0 99be dd79 913d
00000010: 96a4 56bd 137b 5d3b 509f 62be 5781 a63d
00000020: f18b 88bd 9989 38be 0a4b ebbd a6ff 50bd
00000030: 050c d0bd 8416 3bbe 41d5 d5bd 23e5 00bd
0.13282703 -0.02951213 -0.30029604 0.07103322 -0.052403055 0.0033795282 -0.22131085 0.08130138
-0.06667317 -0.1802124 -0.11488922 -0.051025055 -0.101585425 -0.18270308 -0.104410656 -0.03146852

layer1.0.bn1.running_mean f4 [16]
00000000: af79 7abb e60c 28bd c5c0 ebbe e9ee 66be
00000010: d931 89bd 1983 bf3e c15a d6be 0bf4 53be
00000020: 6aa4 6abe b665 38be 8e2f 24be 081b 09be
00000030: d25f 88bb 9f98 36bf f893 9dbf 8bb1 b7bd
-0.0038219502 -0.041027926 -0.4604551 -0.22552074 -0.06698961 0.37404707 -0.41866115 -0.20698564
-0.22914281 -0.1800755 -0.16033766 -0.13389218 -0.0041618133 -0.7132663 -1.2310781 -0.089694105

layer1.0.bn1.running_var f4 [16]
00000000: 193e 4c3f 3560 0840 160b bf3f 5470 373f
00000010: 0a6a fe3f 1a72 523f 3a50 903f 2e16 523f
00000020: 4b04 8140 d9b2 313f 06b2 e73e 555c 2d40
00000030: 83dc 1d3f 593b c73f fc32 9540 f66d d13f
0.79782254 2.130872 1.4925258 0.71655774 1.987611 0.82205355 1.1274483 0.82065094
4.031774 0.69413525 0.4525301 2.7087605 0.616646 1.5564986 4.6624737 1.6361682

layer1.0.conv2.weight f4 [16, 16, 3, 3]
00000000: 0827 41bd 61f9 31be 9dc2 9fbc bbe7 de3d
00000010: 1853 8e3d 204c 0ebe 02a2 ecbd ffb8 093e
00000020: 83e7 75ba e117 69bd 0614 ad3d 6134 c93d
00000030: 1f8c b1bc 8997 56bd d729 253e 194e 5bbd
00000040: 4026 5abe 222e 90bc 9029 7bbd b8c1 053e
00000050: fd05 b13d de5e 45be bfc8 7a3c 80da 00be
00000060: 5acf 15be 21fd 0ebd 2763 95bc 9918 adbc
00000070: 2e40 7dbc d283 863d 68db 673d 9da6 913b
00000080: b3b6 23bd cab3 98bd 7fe7 363d edd6 adbc
00000090: c2b0 123e 2221 113e ef06 3cbc 6ca9 aa3c
000000a0: 6807 933d d96c 3e3e 2f06 453e e350 04be
000000b0: c4c3 cebc 58de 91bd 4ca4 a13e 1bb5 d0bd
000000c0: a1b6 22bd e2bb 59bd 65c8 c2bd d360 5c3d
000000d0: b9c5 b2bd b544 b3bd ae30 583e a37f 7a3c
000000e0: 8546 c93c 54ee de3d f9ff 4bbe 50d6 0cbe
000000f0: 99d4 fa3c e9f5 d6bd e308 273c d448 633e
00000100: 93e9 283e 8453 4a3e 9d88 623d 4150 b7bd
00000110: 7f0d ef3d 29db 3dbe 00b3 5ebd b486 60be
00000120: 8926 473d 2d56 5cbd bd70 22be a82b c63d
00000130: a265 383d 1e96 dabb 399a f73d 51eb 64be
00000140: cca6 5c3e e302 f8bd 07d7 cebd 0b60 fb3d
00000150: 9c10 0dbe 77b8 d33d 7d1d a0bb 197c 93bd
00000160: 12ab 09bd b2c2 3a3e 3d9a 9838 8cf8 293e
00000170: ce98 90bc bf4b e23c 8e47 a43b cebd efbd
00000180: 9db7 18be 6400 76be bfd2 973d 6350 36be
00000190: 6dc0 a93c 13a4 773d b435 a2bd fa0c 0dbe
000001a0: cc8f c7bd 0efa 9ebd 9ff6 7e3d 2c0e eabe
000001b0: a54a d8bd b379 a13d 067a a33d 7cfa 643b
000001c0: b1a6 0ebe f710 2bbd 49f9 febd acb3 813d
000001d0: 39ab 973d 9b02 443e 0c7f 393d b523 1fbd
000001e0: 44ed 043e 2150 1f3d 9f1e b5bd 7cab 0ebe
000001f0: f530 e7bc 602c 29be c809 0cbe 790c 333d
00000200: bf77 a13d 4470 c93b e99c 883d 877c a53d
00000210: 68e5 733d cb07 21bd 80a0 2f3d de3c 99be
00000220: 7649 98bd 4a77 28bd 7aaf 61bc 7770 703c
00000230: e3f9 6d3c 734e 01be 4b07 4b3d 4a3d 13bc
00000240: bac7 0d3d 5b16 ef3c 5352 c83d 4658 b4bc
00000250: b6ef 83bd 0d07 65bd 319c e0bd 5a9d 3cbd
00000260: 98b2 dd3d 45bd b0bb 7c86 113e e0fb ef3d
00000270: 4042 833c 42fc 9fbd fdce b9bd be66 93bd
00000280: 435f cd3d 2b89 a33b af44 45be 6fdd 40be
00000290: 12e7 b4bd 5cf2 a5bd 5ef8 83bc e4e4 cebc
000002a0: 9c47 593e cfe5 243e 6fdb 693e 7c0c 1d3a
000002b0: af1b 88bd 9494 623d 3db9 233e 810e f03c
000002c0: 8d50 de3d da06 8bbc 17ba edbd c1f2 0bbe
000002d0: fa1a 323e 37dc 0e3e b39a 17be 9df4 f9bd
000002e0: f777 abbd 41d7 00be 9f43 b7bd 7978 dcbc
000002f0: 0a67 7fbe 646f d03d 1ad2 88bd 2c28 bf3d
00000300: 2ba1 0c3d d834 d03d a986 763d 8221 9e3d
00000310: 483c 1fbe ce39 01be 890d a13d cb0a 6dbd
00000320: df04 483e 502e 573e 97b1 e33d 0ee4 bb3e
00000330: e645 b4be a5f2 8abe f168 71be c540 6cbe
00000340: 8a38 ac3c a076 663d 8566 a0bd a594 e2bc
00000350: 293c a2bd 0d84 843d 071e cb3d 41ec 463e
00000360: 5dbb 4dbe 5862 0d3e 0778 92bd 761a 983d
00000370: 0a5c 8e3d 59af efbc 9357 b3bd f008 37be
00000380: 4612 eebc 286e f9bd 9ea1 0a3e 68c9 103e
00000390: 4965 54bd 5192 913d b2b2 87be 8ae4 6e3c
000003a0: f5df 923d 4a1d 473c d87e aabd 5355 00be
000003b0: 9686 563d 0b67 403c fa7d b53d f39f d4bd
000003c0: 394a 623d 79b1 d7bd a853 1b3e 8be6 10bd
000003d0: 86ca 1dbd 088b b4bd 4dc8 c3bc 4809 da3d
000003e0: a34a 983d 824c f8bd b867 833c 83b2 d1bd
000003f0: a188 44be 60bc 203c 3cf3 9c3b 4f27 3abd
-0.047156364 -0.17380287 -0.019501979 0.10884043 0.069494426 -0.13896227 -0.11554338 0.13449477
-0.0009380506 -0.05690754 0.08451085 0.098244436 -0.02167326 -0.05239061 0.16129242 -0.053541277
-0.21303654 -0.017600123 -0.061318934 0.13062179 0.0864372 -0.1927447 0.015306651 -0.12583351
-0.1462988 -0.03490937 -0.018235756 -0.021129893 -0.015457196 0.065681115 0.056605726 0.0044449107
-0.039969157 -0.07456167 0.044654366 -0.021220649 0.1432524 0.14172795 -0.0114762625 0.02083274
0.07179147 0.1859621 0.1924064 -0.12921481 -0.025239833 -0.07122487 0.3157066 -0.10190793
-0.03972495 -0.053157695 -0.095108785 0.053803276 -0.08729119 -0.08753339 0.2111232 0.01528922
0.02456976 0.10885301 -0.19921865 -0.13753629 0.030618953 -0.104961224 0.01019499 0.2219575
0.16495351 0.19758421 0.055306066 -0.08950854 0.11672496 -0.18540634 -0.054369926 -0.21926385
0.048620734 -0.05379312 -0.15863319 0.096762955 0.0450188 -0.0066707274 0.120899625 -0.22355391
0.21548003 -0.121099256 -0.10099607 0.12274178 -0.13775867 0.10337918 -0.004886328 -0.07201404
-0.03361041 0.18238333 7.276654e-05 0.1659872 -0.017650988 0.02762401 0.005013413 -0.11706124
-0.14913793 -0.24023587 0.074132435 -0.17804103 0.020721639 0.060459208 -0.07920399 -0.13774481
-0.09744224 -0.07762538 0.062246915 -0.45713937 -0.10561112 0.078845404 0.079822585 0.003493934
-0.13930775 -0.041764226 -0.12449891 0.06333098 0.07405705 0.19141619 0.045287177 -0.038852412
0.12981135 0.038894776 -0.08843731 -0.13932604 -0.028221587 -0.16520834 -0.13675606 0.043713067
0.07884168 0.0061474163 0.06670553 0.08080392 0.05954495 -0.039314073 0.042877674 -0.2992925
-0.074358866 -0.041129388 -0.013774747 0.014675251 0.01452491 -0.12627582 0.049567502 -0.00898678
0.034614302 0.029185465 0.09781327 -0.022014748 -0.064422056 -0.055914927 -0.10967291 -0.0460485
0.1082508 -0.0053936564 0.14211458 0.11717963 0.016022801 -0.07811786 -0.09072683 -0.07197331
0.10027935 0.004990717 -0.19264482 -0.1883447 -0.08833136 -0.08102867 -0.016109642 -0.025255628
0.21218723 0.1610329 0.22837614 0.0005990935 -0.06645905 0.055317476 0.15988632 0.029303791
0.108552076 -0.01697104 -0.116077594 -0.13666822 0.17393103 0.13951193 -0.14805107 -0.122048594
-0.08372491 -0.12582113 -0.089484446 -0.026912915 -0.2494165 0.10177496 -0.06680699 0.09333834
0.03433339 0.10166329 0.060187016 0.07721235 -0.15550339 -0.12619707 0.0786391 -0.05787162
0.19533108 0.2101376 0.11117857 0.3669743 -0.35209578 -0.27138248 -0.23575188 -0.23071583
0.021023054 0.056265473 -0.07832054 -0.02765877 -0.07921631 0.06470499 0.09917837 0.19426061
-0.20091005 0.13807046 -0.071518 0.07426922 0.06951149 -0.029258417 -0.08756938 -0.17874503
-0.029061448 -0.12179214 0.13538215 0.1413933 -0.051854406 0.07107986 -0.2650352 0.014580855
0.07171623 0.012152979 -0.08324975 -0.12532549 0.052374445 0.011743317 0.08861919 -0.103820704
0.055246565 -0.10531897 0.15168631 -0.035376113 -0.03852322 -0.088155806 -0.023899222 0.106463015
0.07436111 -0.12123968 0.016040668 -0.102391265 -0.19192745 0.009810537 0.004789738 -0.045447644

layer1.0.bn2.weight f4 [16]
00000000: dc7c 663f 22fa bf3f 5cb9 873f 45ea 7f3f
00000010: bf57 ab3f 3f3d 843f 4979 713f cb3d 7b3f
00000020: 8460 933f f7b0 813f e310 823f be98 8f3f
00000030: 80fd 863f 1e98 803f a447 633f cc16 903f
0.9003427 1.499821 1.0603442 0.9996684 1.3386153 1.0331191 0.9432569 0.98141164
1.1513829 1.013213 1.0161403 1.1218488 1.0546112 1.0046422 0.8878119 1.1256957

layer1.0.bn2.bias f4 [16]
00000000: d152 e6bd 2ccc 3bbe 48f6 3cbd fc31 4ebd
00000010: 42a5 a6be 0b4e ecbc 8a76 03be e9c4 f2bd
00000020: 5ee9 ecbd 704a 4dbe 8a5b e1bc 26f4 89be
00000030: c067 50bd 6900 9fbd 36e9 16be f7ea a0be
-0.11246265 -0.18339604 -0.04613331 -0.050340638 -0.32547957 -0.028845808 -0.12838188 -0.11853964
-0.11567949 -0.20047927 -0.02750947 -0.26944083 -0.050880194 -0.0776375 -0.147374 -0.31429264

layer1.0.bn2.running_mean f4 [16]
00000000: c0ff b8be 8012 5ebe 34f5 223e 1bd6 0cbe
00000010: 760d 56be c175 70be a4c0 7d3e 5767 5bbe
00000020: 00ff 37be 06b6 7dbd 31a1 ef3d 9f7f fdbe
00000030: 931f 14bf 2a7c cdbe dac2 98be 2553 6abe
-0.36132622 -0.21686745 0.1591385 -0.1375355 -0.20903572 -0.2348242 0.24780518 -0.2142614
-0.17968369 -0.06194117 0.11700667 -0.4951143 -0.5786068 -0.40133792 -0.2983616 -0.2288328

layer1.0.bn2.running_var f4 [16]
00000000: bc2f 7e3f 3d19 8f3e 6410 b83e 390c 333f
00000010: a3b6 813e 1ae9 183f 8edb 163f 04ff c43f
00000020: b7fa 783f 1455 173f 1e29 0a3f 4ef2 3e3f
00000030: edee 9c3f 0fec 083f cdc2 ee3e e3cf 783e
0.99291587 0.27948943 0.35950005 0.69940525 0.25334653 0.59730685 0.58928764 1.5390325
0.9725756 0.59114194 0.5396899 0.7458848 1.2260414 0.53485197 0.46632996 0.24298052

layer2.0.conv1.weight f4 [32, 16, 3, 3]
00000000: 09bd 053c add3 6abd 9308 3dbe 60b7 6abe
00000010: d304 003c 7bf9 48bd afe3 8d3c ae32 0b3e
00000020: 4f3f f93c 9108 29be 8df9 423d 0063 983d
00000030: 7ec9 8abe c49e 943c d65c ea3d d026 06bc
00000040: 914f c0bd 148a b9bd 18cc 7d3d 0384 90bd
00000050: 9c9c b6bd a54a 133d 26bc 3bbc caee f8bc
00000060: 35c8 aebd 4703 ffbb dc25 88bd 5bcd b83d
00000070: 9557 863d 2935 5bbe 790f 91bc 2647 123e
00000080: 9d6f e2bd cc57 c3bc 480a 503d 5051 8e3c
00000090: 1e8e 363d 2493 ae3c 7e49 3ebd 9b3f adbc
000000a0: 9945 5a3c 755d 3ebd da92 82bd f5bb 2fbe
000000b0: 3acf 72be f153 42bd 5c67 8cbc 6930 4abd
000000c0: b39b 19bd 3fe3 3fbd db9f e53d 7e0f b1bd
000000d0: c76d 113b 2d84 63bd 6c70 d43d b9ce 4d3e
000000e0: eaba 673c 305e 883c b771 9d3c 256e 54be
000000f0: 855d 47bc 7efa 0a3e af59 64bd 9fc3 81bd
00000100: 54d5 c63a 0221 04bd a972 02be a3a8 9c3d
00000110: 59f4 ae3d 287e b63d 4694 21be 51b2 7a3e
00000120: 48d1 1cbe 22a8 02bd 1ac7 ce3d 3453 c9bd
00000130: 9c3a 4aba 3a07 f5bd c7ef 303b a01c 6ebc
00000140: 9583 e33a 8516 653d c090 013e 156a ad3d
00000150: 6a46 b9bd b097 b9bd b051 30be 0d9f 0abe
00000160: 52bb 383d 4d3b a93c 12aa 41bd f8a5 e1bb
00000170: 5df6 b4bd 00be 143d 4733 443b 3b49 9dbe
00000180: 7e19 543b 2f14 39bd 8633 963d ff46 f33d
00000190: 8ad9 c6bd 5ced 9fbd b7c3 853d 1feb b73c
000001a0: 6111 7ebd 6618 423d a400 6abc 2454 283e
000001b0: bdb2 113d 2592 e03d 904c 0b3d 2d92 80bb
000001c0: 23d4 e6bc 9a6c 953b 7cc9 e43d 5878 583e
000001d0: e752 c1bc a260 21bd d3df 18bc 0fbb 283d
000001e0: 0b83 0d3e 0f24 9c3c 56db f3bd 5799 c0bc
000001f0: ad06 103e 3dff 103e 759c a0bd 52f8 433d
00000200: f581 80bc 1492 92bb de87 91bb 039e d93d
00000210: 319b a6bd efc9 353d 1b21 f6bc 372b c8bc
00000220: e8be 9dbd 8f42 9cbc beb7 853d c184 bfbb
00000230: ff18 b23d a92f c7bc 3549 b5bc 2d4d 39be
00000240: 928b f0bd 3bf6 8f3d 115a 1fbd 71b5 24bd
00000250: 424b 0f3d ce79 4b3d 2c02 003d be24 383c
00000260: b3a7 4b3d 9730 0b3c 798d 0b3d c4ed b03d
00000270: 2f09 843d d3d2 403d b93e 8fbc bd13 a4be
00000280: c698 63bd 0350 88be 1bd7 cd3d 8bf9 56bc
00000290: 3a0b c63c 01d5 0ebd 8162 88bd 615b 88bd
000002a0: 65ec c0bd cd5d eb3d 4d09 f5bd 3370 da3c
000002b0: 876f 703d 1542 e7bc ff21 17bd 717d 273e
000002c0: 98e5 67be afd2 b7bd 9d0f 2c3d 074a f63d
000002d0: 552c 703d d34e cfbc 58ba de3c d9e6 ed3a
000002e0: fafc 26bd ac90 60bd 7973 c9bc 881a 433d
000002f0: 32d9 8cbd 5363 b63d 3ef0 fc3c 9f4a 06be
00000300: b111 873d 47ed d5bd 3e49 4cbd 2de3 0ebd
00000310: 64c9 34bd ef53 d33d 2cd8 ab3b 842f c43c
00000320: 848b 943c 2d6b 8b3d cb17 113e 17d4 75bd
00000330: 0deb 24be fae7 a4bd 7255 023c bde7 913d
00000340: 51f8 7b3d bfbe 0a3d 3baf 53bd 445e a5bc
00000350: d5db 19be 7e0a 903d a330 6f3d 131c b4bd
00000360: 5db2 623d 18f9 fabd d43b 6abd 0e16 e6bd
00000370: dde5 b03c c537 1fbd 8607 aa3d 0849 1d3c
00000380: 07b5 ca3c 38ed 9fbd 1271 58bd f894 d1bc
00000390: 9274 3fbd 8de0 c73d d90c 363d 0503 97bd
000003a0: e40b bfbc b7f0 c1bd 3f67 7dbd af7c babd
000003b0: 3b0a 193d 19bb 42bd eabd bc3d 6e31 b1bb
000003c0: cfeb 9abd 4fa7 c3bd a1a1 f7bc dc9c c4bd
000003d0: 4563 1abd 7f82 e93d da61 863d 5948 af3c
000003e0: 28c2 c73d 0c4e 0dbe ba64 823d 6213 25be
000003f0: cfa2 863c 58cf 6fbb 270d 57bd 1af4 a33c
0.008162745 -0.057330776 -0.18460302 -0.22921515 0.00781365 -0.049066048 0.017320482 0.13593552
0.030425696 -0.16507174 0.04760127 0.07440758 -0.2710685 0.018142112 0.11443488 -0.008187965
-0.09390176 -0.090595394 0.061962217 -0.07056429 -0.089165896 0.03595986 -0.011458432 -0.030387301
-0.0853428 -0.007782373 -0.06647846 0.090235434 0.06559674 -0.21406998 -0.017707573 0.14284953
-0.11056445 -0.023845576 0.050791055 0.017372757 0.044569127 0.021310396 -0.046456806 -0.021148494
0.013322257 -0.046475846 -0.06375666 -0.17161544 -0.23711863 -0.047443334 -0.01713913 -0.049362574
-0.037502002 -0.04684758 0.11212131 -0.08645533 0.0022190677 -0.055545975 0.10373005 0.2009839
0.014143685 0.016646475 0.019219263 -0.20745142 -0.012168293 0.13572118 -0.05574959 -0.0633614
0.0015169778 -0.03225804 -0.12739052 0.076493524 0.08542699 0.08910781 -0.15779218 0.24482085
-0.1531421 -0.031898625 0.10096569 -0.09830323 -0.0007714422 -0.11964269 0.0026998387 -0.014533192
0.001735794 0.05592968 0.12652874 0.08467499 -0.090466335 -0.09062135 -0.17218661 -0.13537236
0.045100518 0.02065816 -0.047281332 -0.00688624 -0.088360526 0.03631401 0.002993779 -0.30719933
0.0032363827 -0.045185264 0.07334046 0.11878776 -0.09709461 -0.078089446 0.0653147 0.022450982
-0.062028293 0.04738655 -0.014282379 0.16438347 0.03557085 0.10965375 0.034008563 -0.0039236755
-0.028177327 0.0045600655 0.111712426 0.21139657 -0.023599101 -0.039398797 -0.009330708 0.041194018
0.1381952 0.019060163 -0.119070694 -0.023510618 0.14065047 0.14159866 -0.07842342 0.04784424
-0.015686968 -0.0044729803 -0.0044412455 0.106258415 -0.08135069 0.044382032 -0.030045083 -0.024434669
-0.07702428 -0.019074706 0.06529187 -0.005844683 0.08696174 -0.024314718 -0.022129634 -0.18095846
-0.11745371 0.070293866 -0.038904253 -0.0402121 0.03498388 0.04967671 0.03125207 0.011239229
0.049720477 0.008495471 0.034070466 0.086391 0.06447064 0.047076058 -0.017485963 -0.3204631
-0.055565618 -0.26623544 0.10050794 -0.013121019 0.024175275 -0.034871105 -0.06659413 -0.06658054
-0.09420089 0.114925005 -0.119646646 0.026664829 0.05870011 -0.028229753 -0.036897656 0.16356446
-0.22646177 -0.089757316 0.042007077 0.12025838 0.05863603 -0.025306141 0.027188465 0.0018150463
-0.0407686 -0.05482547 -0.024591194 0.047632724 -0.06877364 0.08905663 0.030876275 -0.13114403
0.06595171 -0.10445648 -0.049874537 -0.03488462 -0.044137374 0.103187434 0.0052442756 0.023948438
0.018132932 0.068075515 0.14169233 -0.060016718 -0.1610529 -0.080520585 0.007954942 0.07124279
0.06151611 0.033873316 -0.051680785 -0.02018655 -0.15025266 0.07033251 0.058395993 -0.08794417
0.05534588 -0.12254542 -0.057185963 -0.11234675 0.021593982 -0.038871545 0.08302216 0.009599932
0.024744524 -0.07808918 -0.052842207 -0.02558373 -0.04674203 0.097596265 0.044445846 -0.07373623
-0.0233211 -0.09469741 -0.06186604 -0.09105813 0.037363272 -0.04754171 0.09215911 -0.005407504
-0.07564508 -0.09553396 -0.030228438 -0.09600231 -0.037692327 0.11401843 0.065616325 0.021396803
0.09753829 -0.13799304 0.06366868 -0.16120675 0.016435055 -0.0036592092 -0.052502777 0.020013858

layer2.0.bn1.weight f4 [32]
00000000: d846 6f3f 035e 6c3f 29a6 a53f 19fc 873f
00000010: dfb1 913f fcc5 783f 1cf7 673f 4a76 6c3f
00000020: dc6e 8f3f 6aef 5f3f ee38 703f 89d4 833f
00000030: 8f91 6e3f d475 863f 2169 733f f969 6a3f
00000040: a0af 893f c912 643f 8ae7 723f 2342 773f
00000050: 1e06 753f 6a89 733f 2903 853f 4ab0 533f
00000060: 6a37 843f 8da6 833f 93f6 6c3f 8366 7b3f
00000070: 8379 823f 3079 863f 84c5 643f 4618 553f
0.93467474 0.9233095 1.2941333 1.0623809 1.1382407 0.971771 0.90611434 0.92367995
1.1205707 0.8747469 0.9383687 1.0299236 0.93190855 1.0504708 0.9508229 0.9156795
1.0756721 0.89091164 0.9488455 0.9658529 0.9571246 0.9513155 1.0391589 0.8269087
1.0329411 1.0285202 0.9256374 0.98203295 1.0193332 1.0505733 0.89363885 0.83240163

layer2.0.bn1.bias f4 [32]
00000000: 257f 8cbc 019c 44be 4f3c 2bbe e460 623b
00000010: ffe3 b53b e409 debd 83a3 91bc fa4e c2bc
00000020: 0793 593c f586 1dbd 9739 57bd 05de 5ebd
00000030: 8fda 82bd 5df2 2ebd 20de 33bd 49ee 0dbe
00000040: 237b 32be 7c15 b0bd 3373 6a3c f62d d6bc
00000050: 46e9 eebd 6440 0bbd 373f fabd 4f9f dbbd
00000060: 1747 c93c 00ea 61bd 6106 08be 1a5f 54bd
00000070: 5161 9b3c 0b9b 48be f914 c0bd d97a ccbd
-0.017150471 -0.19200136 -0.16722225 0.0034542615 0.005550861 -0.1084173 -0.017778164 -0.0237193
0.013279683 -0.038458783 -0.052545156 -0.054410953 -0.06389343 -0.042711604 -0.043913007 -0.1386043
-0.17429785 -0.08597848 0.014309692 -0.026144963 -0.11665587 -0.033996955 -0.122190885 -0.10723745
0.024570031 -0.0551548 -0.13283683 -0.05184851 0.018967303 -0.19590394 -0.09379 -0.09984369

layer2.0.bn1.running_mean f4 [32]
00000000: fa49 2cbf 124a 35bf 0e27 0abf 8d6e 2ebf
00000010: 05f6 18bf a18e 24bf df6c bebe 2fe6 ebbe
00000020: fd2d 79bf d31e 853e 2ca4 9abd c6bc 83bf
00000030: cce1 3bbf 0dff 43bf 61f8 80bf e887 86bf
00000040: a125 04bf 2799 3ebf 4ced 32bf 2760 86bc
00000050: b035 75bf 0607 5abb 9520 90be fc02 6c3e
00000060: ada4 96bf aa25 42bf cbb6 45bf d0ab 67bf
00000070: b7dc 03be 6038 d1be fa8a a1bf 76b3 533f
-0.6730038 -0.7081615 -0.5396584 -0.6813744 -0.59750396 -0.64280134 -0.37192437 -0.46074054
-0.973358 0.2600008 -0.075508446 -1.0291984 -0.73391414 -0.7656105 -1.0075799 -1.0510225
-0.5161992 -0.7445244 -0.69893336 -0.01640327 -0.95785046 -0.0033268346 -0.28149858 0.23048013
-1.1769005 -0.7583872 -0.77232045 -0.9049654 -0.12877165 -0.40863323 -1.2620537 0.8269571

layer2.0.bn1.running_var f4 [32]
00000000: 12ba b63f cf3b 7a3f d170 0f3f a47d b03f
00000010: 3695 cf3f 883f a13f b413 bb3f e4b5 0940
00000020: 6e10 c03f 69e3 933f 57b7 b73f 29f9 963f
00000030: a45c cb3f 8cf0 cd3f 90ed d43f 7969 553f
00000040: 367c 103f c2c8 8b3f 20c7 ca3f d24a 6940
00000050: f8a3 ca3f f328 393f a5ed 683f 8459 bd3f
00000060: 109d f63f 647c 933f e049 873f 8b4f 943f
00000070: 767b 2340 2fe7 183f b89e 583f e604 fe3f
1.4275534 0.9774751 0.5603152 1.3788342 1.621741 1.2597513 1.4615388 2.1517267
1.5005014 1.1553775 1.4352826 1.1794788 1.5887647 1.6089034 1.6634998 0.83364064
0.5643953 1.0920641 1.5842018 3.6451917 1.5831289 0.7232811 0.90987617 1.4792943
1.9266682 1.1522336 1.056942 1.1586775 2.5544105 0.5972776 0.84617186 1.9845245

layer2.0.conv2.weight f4 [32, 32, 3, 3]
00000000: 35e7 1f3c e849 86ba c5e2 81bd 3a51 99bc
00000010: b277 02bc cc22 b4bb b666 68bd ef2f 8dbc
00000020: 971f cbbd 58c5 203e 6f37 623e 36dd a1bc
00000030: d3c4 e03d e0bb 79ba b72a a43c 2821 cabc
00000040: 2bfd 2bbe 9f37 eabc 1387 8d3d 1af5 db3b
00000050: 3ded 87bd bda6 e73d 2e18 babc 0f29 653d
00000060: 2d4f a1bd 2448 0abe 90cf 70be 588e 6f3d
00000070: c56f b4bc b2da 40bd d639 7d3e 347c 35bd
00000080: 592f 86bd a422 4bbe e92e 80bd 425b 44bd
00000090: f188 3f3e 0550 f9bc cf13 d13d c773 51bd
000000a0: 8e94 0ebd 91eb 21bd 7394 123e 8c94 363c
000000b0: 34d4 37be 8e51 313d 5903 953d 2141 d73d
000000c0: 6721 043e 77af 4e3d e152 9abd 2a2f df3c
000000d0: 7217 c9bc ff1e fd3d 9f75 43bd 268d 54ba
000000e0: 5547 bb3d 7726 bfbd 5e30 b5bd 1a32 b53d
000000f0: 304b 3b3c 8dd6 313d 3535 32bd 0602 053d
00000100: 2ff0 0a3d d25a 9dbd 50ac e83c 01ae 9cbb
00000110: 1e48 dcbd 251a f0bd 1846 e43d c5ff cb3c
00000120: 45fa 92bd fd95 4ebd bdc9 7ebb 43bb 01be
00000130: 6750 c83b 31aa 54bd 3aae 9b3d 6833 65bd
00000140: b4e9 fe3d 60d6 203d 4fd9 40bd c071 653d
00000150: 5dd5 ee3c 6e94 b6bd 0a6a 0ebe 0c6e d9bd
00000160: ed63 d63d b2d1 ee3d 2f24 50bd 97dc 413d
00000170: 391e eabd e527 063e b22c 0c3c 95b0 403b
00000180: bdff 02be 03d4 5d3c 8a4d c3bd 38eb 093d
00000190: c3bd 3d3d 3588 4d3d e119 54bd 9ef2 243d
000001a0: c193 b43d e4ac 12be bf28 5abd 2e44 0cbe
000001b0: 5bac 82bd d336 1abe 7782 98bc 6b0f fb3b
000001c0: 0681 7dbc 6355 b1bd 1a90 bc3c 52a6 76bd
000001d0: d5d0 b23c 370f b6bd 2e37 21be a3e1 65bd
000001e0: 796a 5d3a 7f2e b63d c402 6abd 1140 5d3d
000001f0: d12e 1bbd 487c 50bd 3e46 9fbd c3f6 053d
00000200: 2239 e93c 9469 ae3c 7f77 fdbd 24a3 1fbd
00000210: e7ee de3c 8c44 e83d 7e3e 92ba 4747 4ebc
00000220: 8cb0 9dbd 577c 4ebc c3f3 f23b e9b3 d23c
00000230: ab1d 38bd c96a 17bc 3d71 11bd 2f96 5b3d
00000240: e86c a63d 2c15 2fbd 1639 b53c 35e4 8b3b
00000250: 7530 b53d abc5 4abd c0ea e73d d43f 36bd
00000260: b9ff 013e 0231 403d 8236 92bd cb92 223e
00000270: 090c 103e 84de 62bd ef28 713d 300e 3d3c
00000280: a450 7abb 7eb1 08be f82f 243e a38e 57bd
00000290: 2bf0 3c3d c669 05be 59aa 5b3e ea29 eb3d
000002a0: 2148 07bd dcd0 1ebe e70b 59bd e58e 26bd
000002b0: d0ab 00be 86ac 71bd 7f44 05be 4701 c63d
000002c0: 7db8 17be 48f0 7cbc 28ec 613d ef76 bcbd
000002d0: 0244 b6bd f4ff c9bd 5e7f c93d 79b6 cb3d
000002e0: 893b bbbd 41cc 8bbd 2ec3 0abe be9d 10bb
000002f0: 19a7 503d d18e 6bbc 4f3d 023e b0e3 493e
00000300: c1a3 53bd f9d0 063e ca49 d7bd ed97 f0bd
00000310: bd2f 1cbd 71f3 e3bd 5acf 58be 8aff dabd
00000320: a685 4fbe 0751 8a3d 8f6b 8f3c 10f7 0e3d
00000330: ba58 dbbc 7b04 d73d cc36 0bbc 652a a6bd
00000340: 997f 333e c225 cf3d 3920 01be 702d 093d
00000350: 6d6f eebb ab4f 9b3d b226 b7bd 8c63 cabd
00000360: dd7d e3bd 9a3e 933c e3d9 4d3c 60d9 0bbe
00000370: f9b7 5bbd 1bbb a63d de2c 3c3e 2290 35bd
00000380: 4a4c 16be 895c 48bd 4d03 40bd 804a ccbd
00000390: 6d59 513d 398e a0bc 583f 1ebd da53 b5bb
000003a0: 9976 ddbd be05 01bd 59ec d23d bd08 823d
000003b0: 96c2 603b 532e 00be b6de ee3c 7283 54bd
000003c0: 465c 5cbd 5302 103d 9679 913c 0e13 95bd
000003d0: 0ed4 063b d040 e9bc 61b8 9cbd 9637 19ba
000003e0: 2ca3 413d 7aca c6bd dd9e b7bd 177a 0dbe
000003f0: 6547 f4bd 82bf cb3d aaea e6bd b741 56bc
0.009759714 -0.0010245414 -0.06342081 -0.01871549 -0.007963108 -0.005497312 -0.056738578 -0.01723477
-0.09918135 0.1570028 0.22091459 -0.019758802 0.10975041 -0.0009526592 0.0200399 -0.024674013
-0.16795795 -0.028590975 0.06910529 0.006712568 -0.066370465 0.113111 -0.022716608 0.05594736
-0.0787643 -0.13504082 -0.23516679 0.05848536 -0.022025952 -0.047083564 0.24729094 -0.044307902
-0.065519996 -0.19837433 -0.062589474 -0.047938593 0.18704583 -0.030433664 0.10208856 -0.051135805
-0.03480964 -0.039531294 0.14314441 0.011143815 -0.17952043 0.043290667 0.07276029 0.10510469
0.12903367 0.050460305 -0.07535339 0.02724417 -0.024547312 0.12359428 -0.047719594 -0.0008108191
0.09144465 -0.093335085 -0.08847116 0.08847447 0.0114315 0.043417502 -0.043507773 0.032472633
0.033920463 -0.07683338 0.028402478 -0.004781485 -0.10755943 -0.11723737 0.11146182 0.024902234
-0.071766414 -0.05043601 -0.003887757 -0.12669091 0.0061131003 -0.05192012 0.076015905 -0.055957228
0.12446919 0.039266944 -0.04708224 0.056016684 0.029154474 -0.089150295 -0.13907638 -0.10616693
0.10468278 0.1166109 -0.050815757 0.04732951 -0.11431546 0.13101156 0.008555578 0.0029402126
-0.12792869 0.013539317 -0.09536274 0.033671588 0.04632355 0.050178725 -0.051782493 0.04027044
0.08817244 -0.14323765 -0.053261515 -0.13697883 -0.063805304 -0.15059976 -0.018616898 0.00766175
-0.015472656 -0.08658864 0.023017932 -0.06021721 0.021828094 -0.08889621 -0.15743706 -0.056123387
0.00084463466 0.08895587 -0.057131544 0.054016177 -0.037886444 -0.050899774 -0.077770695 0.032706033
0.028469626 0.021290578 -0.12376308 -0.038973942 0.027213527 0.11341199 -0.001115754 -0.012590236
-0.07699689 -0.012602887 0.0074143126 0.025720553 -0.04495017 -0.009241768 -0.035508383 0.053610023
0.08126241 -0.0427448 0.022121947 0.0042691478 0.08847133 -0.049504917 0.11324072 -0.044494465
0.12695207 0.046921737 -0.07139303 0.1587631 0.14067091 -0.05538799 0.058876928 0.011539027
-0.0038195038 -0.13348958 0.16033924 -0.052626263 0.04612748 -0.1302863 0.21451701 0.11482604
-0.03302777 -0.15509361 -0.052989867 -0.04066362 -0.12565541 -0.05900242 -0.1301441 0.096682124
-0.1481647 -0.015438147 0.055156857 -0.09202372 -0.0889969 -0.09863272 0.098387465 0.09946913
-0.09142215 -0.06826068 -0.13551018 -0.0022066678 0.050940607 -0.014377312 0.127187 0.19715762
-0.05166984 0.13165654 -0.10512121 -0.117477275 -0.038131464 -0.11130417 -0.21172848 -0.106932715
-0.20265827 0.06753736 0.017507343 0.034903586 -0.026775707 0.104989015 -0.008496951 -0.08113555
0.17529143 0.101146236 -0.12609948 0.0334906 -0.0072764666 0.07583555 -0.089429274 -0.09882268
-0.11107991 0.017974187 0.012564155 -0.1365714 -0.053642247 0.08141156 0.1837649 -0.04432691
-0.1467754 -0.048916373 -0.046878148 -0.09975147 0.051110674 -0.019599067 -0.038634628 -0.0055336775
-0.10813636 -0.031499617 0.10298986 0.06349323 0.003429567 -0.12517671 0.029158931 -0.05188317
-0.053798936 0.035158467 0.017758172 -0.07279025 0.0020573172 -0.028473288 -0.07652355 -0.000584477
0.047274753 -0.09706588 -0.08965848 -0.13816105 -0.1192768 0.099486366 -0.11275227 -0.013077191

layer2.0.bn2.weight f4 [32]
00000000: 47be 8c3f 9079 7b3f 4eec 6f3f 9c11 913f
00000010: 2091 8c3f 9227 923f aaa7 8d3f c374 743f
00000020: 958f 8e3f 1f20 833f 5e4b 893f 2d5b 8c3f
00000030: a6c2 823f 33e1 963f 61a1 953f d87f 9c3f
00000040: f528 703f e8ab 9a3f b310 8e3f 6b3d 8b3f
00000050: dd89 823f 0af6 893f b5d8 753f 14f2 8f3f
00000060: 30a3 7a3f b5e0 8b3f 995b 803f 8a62 833f
00000070: e92f 933f d45e 8c3f 32c0 813f a89f 803f
1.0995568 0.98232365 0.9371995 1.1333499 1.0981789 1.1418326 1.1066792 0.95490664
1.1137568 1.0244178 1.0726125 1.0965325 1.0215652 1.1787475 1.1689874 1.2226515
0.93812495 1.2083712 1.1098846 1.0878118 1.0198323 1.077821 0.96033794 1.1245751
0.97905254 1.092795 1.0027953 1.0264447 1.1498996 1.0966439 1.0136778 1.0048723

layer2.0.bn2.bias f4 [32]
00000000: 859c 633d 2bec ddbd a7a9 00be 5a87 05bd
00000010: bcb5 4b3c 38b8 3ebd 4e29 aebd 14ca ebbd
00000020: 2ec6 53bc a3e4 89bd 9eb2 ddbb f0a6 c9bd
00000030: 37bf 5cbd 02bc 81bd 4626 69bd 8bb2 d5bd
00000040: 7884 efbd df81 823c 9c41 bfbd 7bdc c5bc
00000050: a513 35bd 3832 84bc e7ae e2bd 405f d0ba
00000060: ba23 f9bd 560d 173c ec5a 93bd 84c8 d3bc
00000070: 4d62 aa3b 8320 c23a ae83 ccbd 06f6 b2bb
0.05556919 -0.10836061 -0.12564717 -0.032599784 0.012433466 -0.046562403 -0.08503972 -0.11513153
-0.012925668 -0.06733062 -0.0067656776 -0.09846294 -0.053893294 -0.06334688 -0.056921266 -0.10434445
-0.11695188 0.015931068 -0.09338686 -0.024152985 -0.044208188 -0.016137227 -0.11068516 -0.0015897527
-0.121650174 0.009219488 -0.07195076 -0.02585245 0.0051997066 0.0014810715 -0.099860534 -0.005461457

layer2.0.bn2.running_mean f4 [32]
00000000: 50da 48bf 13ff 133f 0c26 e2bd 6139 9dbe
00000010: 3759 80bf 9e36 5dbf 9dd0 a8be 80c4 9bbf
00000020: e70b 41be 9060 32bf 19ed efbe 7d58 5fbf
00000030: 5ad6 ac3e b512 e7be 6514 83bf 62f1 dabe
00000040: 09ab e4be 69a4 36bf 888a f4be 3bfe 8fbf
00000050: 925e edbe 86ed 5ebf c344 d0be fc65 36bf
00000060: af07 1cbf ad7a b6be 643d 2ebf 4a85 babf
00000070: 421b 1ebf c68c 64bf 827e 3e3d 253e ccbe
-0.7845812 0.5781109 -0.11042413 -0.3070784 -1.0027226 -0.86411464 -0.3297166 -1.2169342
-0.18852197 -0.6967859 -0.4686058 -0.872444 0.33757287 -0.4513146 -1.0240599 -0.42762285
-0.4466174 -0.7134462 -0.4776194 -1.124946 -0.46361214 -0.8708118 -0.4067746 -0.71249366
-0.60949224 -0.3564047 -0.68062425 -1.4571927 -0.6176034 -0.89277303 0.046507366 -0.39891163

layer2.0.bn2.running_var f4 [32]
00000000: 9e38 8d3f 934b 233f 1a84 153f 080e bc3f
00000010: 5659 af3f b075 573f 449b f83f e53a 3d3f
00000020: c7e9 e33e 3164 803f e04a c13f af61 223f
00000030: f99b d33f 893a 853f 2dae d63f 69ba 8a3f
00000040: 1de2 983f 8ac8 9d3f 87f1 e83e db34 8f3f
00000050: 1476 f43e 0721 643f 7c97 b93f 656c 8b3f
00000060: a11b 543f a4c7 3440 2859 e33f 15e8 3040
00000070: 7647 803f 2c56 ae3f a21b 8a3f 7209 ee3f
1.1032903 0.6378719 0.58404696 1.4691782 1.3699138 0.8416395 1.9422383 0.7391799
0.44514295 1.0030576 1.5100975 0.63430303 1.6531974 1.0408489 1.6771904 1.0838138
1.1944004 1.2326825 0.4549677 1.1188005 0.47746336 0.89112896 1.4499354 1.0892454
0.8285466 2.824685 1.7761583 2.7641652 1.0021808 1.3620048 1.0789683 1.8596632

layer2.0.downsample.0.weight f4 [32, 16, 1, 1]
00000000: f110 8abe b043 2d3d 2c3e eb3b 996a 6c3d
00000010: 8d0d 753c f72b 70be 00e2 993d 79af 0f3e
00000020: c021 0fbf 4a40 e73c 8493 93be 8459 09bf
00000030: ddf9 37be 1a51 233f 5dd1 523e 21d1 fe3d
00000040: a22d 3b3e 92f0 843e 2223 70be cf56 39be
00000050: a1e9 003e 7325 a8bd 9330 34be 1e51 413c
00000060: 6076 ea3e 91b1 933d 7f3c 853e 8393 983e
00000070: d3b2 7cbe ce0e b4be c671 593e b646 663e
00000080: f0f3 983e a0df 8ebe 58a8 783e 7990 05bf
00000090: 5450 5ebe 3cc3 df3e 2356 043e 9d4a 00bf
000000a0: faa2 6d3e 675a ffbe 5188 e3bd 2797 713d
000000b0: ed24 11be b575 b73e 47c7 88be e9bc 6a3e
000000c0: 96d9 663e 71af a13e c7a1 ecbe 93d9 623e
000000d0: 871e ee3d 8c6a cd3e 6bed 71be 1e9a 98be
000000e0: 93c7 953e 550c 13be c60b 023f df17 8bbe
000000f0: e6c3 8dbd ac26 673e 9653 1c3e 4004 923e
00000100: 8b08 8ebd e853 763e 17fc 3d3f ea80 ef3c
00000110: 98e7 5fbe 5407 27be 07a1 f0bd a302 c03e
00000120: 3698 253e 6f6b dfbe 1420 763e 6996 a03d
00000130: 89d0 3ebe b00e 3f3e ac3c 443e 3bc3 3e3d
00000140: c368 7c3c 7ede 03bf eb56 b2be 031d c0be
00000150: e189 2dbe fb32 90bd 1a93 803e 5f7b 28be
00000160: 2bb4 113e 0b7f 28bd cae4 b1be e9fa 5b3c
00000170: 3d12 2ebd 09a6 81bd 6ad6 39be d7ff d73d
00000180: 96c7 89bc 7acf 54be f71f d4bd f19c b93d
00000190: 8aba f5bc 343b c1bd ea87 c0be 3551 d5be
000001a0: fb2d 51be 64a3 b13d c46e c6be 330d f13d
000001b0: aa1b 553b 9209 86bd 0db9 39bf 87c1 a4bd
000001c0: f1cc 8fbe 41ef 043f 83ff 91be 5163 eabd
000001d0: 5837 e43c a8b0 f13d 2958 2b3c 26de b23e
000001e0: cab0 3a3e a26b c3be 7fe5 66be 4a55 963d
000001f0: 265e 0bbc 51e8 803e 7d51 fdbd 837a a53e
00000200: 29fb cb3e 0f00 d2bc 31e7 bebe ab23 883c
00000210: 6f35 87be 6b5c d53e 2454 7abe 8dbc 4fbe
00000220: 2227 473e 018d 7fbe 19a9 e0be b866 52be
00000230: a433 113e 1ffd 583d 789d b83d caea 353d
00000240: 096d 493d 7e17 723e 7c93 c03e 46e1 003e
00000250: 807c 6dbe c994 d73d 0966 7c3e eab3 943e
00000260: e011 9a3d 4573 c23e 8fc7 e93e 4fe2 b6be
00000270: 913a 60bd 9935 98bd f448 a9bc 2930 8ebe
00000280: bb04 5d3e 2038 ae3d b5f2 b7be 84ed 333e
00000290: 76b7 b03d 2bf3 11bf 9a98 e3be ea51 f1be
000002a0: bf8a 4d3e f490 813c 0ab7 50be 6079 40bc
000002b0: 464a 86be aa4f 883c 67eb 0bbd 8950 043f
000002c0: 9b00 ffbe df33 413f f032 4b3d aa3c bb3e
000002d0: 548f 003f a3aa 2cbe baa9 b73e 0bc2 8e3e
000002e0: b7bb 593e 4e63 9a3d b2ec ccba 6d36 303e
000002f0: 1350 043e 998f 043e 8a7a 30be 63a6 96bd
00000300: 55cc 34be 6253 17bd a0bc 263d 8eb0 22bf
00000310: c5e7 cb3e fc6d 96be 7032 59be f65a 753d
00000320: 6786 f23d 0f8f b7be e08c 103e b07f 5b3e
00000330: ab59 083f 1590 a03e b011 09be 87c8 c7be
00000340: a6a4 9bbe 863c 7dbe 257f 5a3e 201e d8be
00000350: c108 6bbd 3598 92be a432 b0be e1a0 6c3e
00000360: b73d 85be 4af1 19be 2dd1 3dbe f473 d43d
00000370: 7fe5 e23d c76d 0c3e 36c3 42be eece 013e
00000380: ad10 1ebd c14b 8abe b51f 113f 5b99 08bf
00000390: aca1 b83d ed65 eb3d 2b42 583e 0966 13be
000003a0: 6969 8b3d 03f5 ecbd 0b6e b93d 0a88 7a3e
000003b0: c39e aebe b53b bdbc 5ec8 ff39 6902 7c3b
000003c0: 8dc3 00bd fbb6 70be 013a 36be 7c07 b7be
000003d0: 1570 ccbe caa4 d63e ce80 9a3e 243c 2f3e
000003e0: 8d4c 9dbe e86e 0f3b 60ae 9fbd 4ea9 833e
000003f0: b3d0 073e 2751 173d 3647 1e3d 2b25 fcbd
-0.2696605 0.04230088 0.0071790423 0.057718847 0.014956844 -0.23454271 0.07513809 0.14031781
-0.55910873 0.028228898 -0.28823483 -0.53652215 -0.17966409 0.63795626 0.20587678 0.12442232
0.18279126 0.2596479 -0.23450902 -0.18099521 0.12589122 -0.08210268 -0.17596655 0.011799125
0.45793438 0.072116025 0.26022717 0.29800043 -0.24677591 -0.35167545 0.21234807 0.22487912
0.2987361 -0.27904987 0.24282968 -0.5217357 -0.2171033 0.4370364 0.12923484 -0.5011385
0.23206702 -0.4987366 -0.11109985 0.05898204 -0.14174242 0.3583199 -0.26714537 0.22923626
0.2254394 0.31579164 -0.46217176 0.2215331 0.116269164 0.4012035 -0.23625724 -0.29805082
0.29253826 -0.14360173 0.50799215 -0.2716665 -0.0692213 0.22573346 0.1526626 0.28518867
-0.06935223 0.24055445 0.74212784 0.029236276 -0.2186569 -0.16311389 -0.117494635 0.37502012
0.16171345 -0.43636653 0.24035674 0.078411885 -0.18634237 0.18657947 0.1916377 0.046572905
0.0154058365 -0.5151137 -0.34831938 -0.37522134 -0.16947128 -0.07040974 0.2511223 -0.16453312
0.14228885 -0.041136783 -0.34744865 0.013426521 -0.042497862 -0.06330497 -0.18148199 0.105468445
-0.016818803 -0.20782271 -0.10357659 0.09063137 -0.029996175 -0.0943512 -0.37603694 -0.4166352
-0.20427696 0.086737424 -0.38756382 0.11770096 0.003251771 -0.06544794 -0.7254799 -0.08044725
-0.28086045 0.5192757 -0.28515252 -0.11444724 0.027858421 0.11801273 0.010458031 0.3493511
0.18231502 -0.38168055 -0.22548483 0.07340486 -0.008506333 0.25177243 -0.12369058 0.32320032
0.39840057 -0.025634794 -0.3728576 0.01661857 -0.26407954 0.41672072 -0.2444616 -0.2028677
0.19448522 -0.24956132 -0.4387901 -0.20546997 0.14179856 0.05297577 0.0901441 0.044413365
0.04917625 0.23641774 0.37612522 0.12585935 -0.23192024 0.105264254 0.24648298 0.29043514
0.07522941 0.3797857 0.45660064 -0.35719535 -0.054743353 -0.07432098 -0.02066467 -0.27771118
0.21583836 0.08506799 -0.35927358 0.17571074 0.086287424 -0.5701167 -0.44452363 -0.47132808
0.20072459 0.01581619 -0.20382324 -0.011747688 -0.2622854 0.01663955 -0.034160044 0.51685387
-0.4980515 0.75469774 0.049609125 0.3656972 0.502187 -0.16861968 0.3587168 0.27882418
0.21263014 0.07538472 -0.0015634506 0.17208262 0.12921171 0.12945403 -0.17234245 -0.073559545
-0.17656071 -0.036944754 0.04070723 -0.6355065 0.39825264 -0.29380786 -0.21210647 0.0599012
0.118420415 -0.35851333 0.1411624 0.21435428 0.5326182 0.31359926 -0.13385653 -0.39020178
-0.30399054 -0.24730119 0.21337564 -0.42210484 -0.057381395 -0.2863175 -0.34413636 0.23108245
-0.26023647 -0.1503345 -0.18536825 0.10373679 0.11078929 0.13713752 -0.1901978 0.12676594
-0.038590122 -0.2701092 0.56689006 -0.53359 0.090152115 0.1149405 0.21118991 -0.14394392
0.06807215 -0.1157017 0.09054192 0.24465957 -0.341055 -0.02309976 0.00048786675 0.0038453585
-0.03143649 -0.23507302 -0.17795564 -0.35747898 -0.39929262 0.419226 0.30176395 0.17112786
-0.30722466 0.0021886174 -0.07796931 0.25715107 0.13263206 0.036942627 0.03864213 -0.12311777

layer2.0.downsample.1.weight f4 [32]
00000000: f022 5f3f 3c33 533f ac4c 573f 1bdd 4c3f
00000010: fd82 5d3f 5b8a 653f d6ca 503f 4683 603f
00000020: 7305 473f 5253 643f 5ebf 5e3f 2240 5e3f
00000030: bc01 553f 140e 4a3f d4c5 683f 065a 5d3f
00000040: 68c5 5c3f 7f79 633f 7bb8 603f 4841 543f
00000050: 43ab 5a3f 73b3 603f d7fa 663f 2fc1 573f
00000060: a51c 733f 284e 563f a781 573f 7a00 693f
00000070: 3d00 403f c84c 553f 23a6 673f 6857 663f
0.87162685 0.8250005 0.84101367 0.8002488 0.86528 0.8966424 0.81559503 0.8770031
0.7774269 0.89189637 0.87010753 0.8681661 0.8320577 0.7892773 0.9092686 0.8646549
0.8623872 0.88857263 0.87781495 0.8291211 0.85417575 0.8777382 0.902265 0.8427915
0.94965583 0.83713007 0.8418221 0.9101635 0.75000364 0.83320284 0.9048788 0.8997712

layer2.0.downsample.1.bias f4 [32]
00000000: 859c 633d 2bec ddbd a7a9 00be 5a87 05bd
00000010: bcb5 4b3c 38b8 3ebd 4e29 aebd 14ca ebbd
00000020: 2ec6 53bc a3e4 89bd 9eb2 ddbb f0a6 c9bd
00000030: 37bf 5cbd 02bc 81bd 4626 69bd 8bb2 d5bd
00000040: 7884 efbd df81 823c 9c41 bfbd 7bdc c5bc
00000050: a513 35bd 3832 84bc e7ae e2bd 405f d0ba
00000060: ba23 f9bd 560d 173c ec5a 93bd 84c8 d3bc
00000070: 4d62 aa3b 8320 c23a ae83 ccbd 06f6 b2bb
0.05556919 -0.10836061 -0.12564717 -0.032599784 0.012433466 -0.046562403 -0.08503972 -0.11513153
-0.012925668 -0.06733062 -0.0067656776 -0.09846294 -0.053893294 -0.06334688 -0.056921266 -0.10434445
-0.11695188 0.015931068 -0.09338686 -0.024152985 -0.044208188 -0.016137227 -0.11068516 -0.0015897527
-0.121650174 0.009219488 -0.07195076 -0.02585245 0.0051997066 0.0014810715 -0.099860534 -0.005461457
